…
"-k28fWPM1Nx0","executionInfo":{"status":"ok","timestamp":1630547095381,"user_tz":180,"elapsed":368,"user":{"displayName":"Guilherme Pereira Albino da Silva","photoUrl":"","userId":"07971392613373651702"}},"outputId":"144838b9-d343-4ff7-b922-002da970d06b"},"source":["max_size = 3000\n","batch_size = 64\n","n_epochs = 10\n","learningRate = 0.05\n","save_filename = 'BOW_BOOLEANO'\n","\n","mlp_BOW_BOOLEANO = NN_CREATOR(max_size)\n","mlp_BOW_BOOLEANO.to(device)"],"execution_count":19,"outputs":[{"output_type":"execute_result","data":{"text/plain":["NN_CREATOR(\n","  (dense): Sequential(\n","    (0): Linear(in_features=3000, out_features=128, bias=True)\n","    (1): ReLU()\n","    (2): Linear(in_features=128, out_features=64, bias=True)\n","    (3): ReLU()\n","    (4): Linear(in_features=64, out_features=32, bias=True)\n","    (5): ReLU()\n","    (6): Linear(in_features=32, out_features=16, bias=True)\n","    (7): ReLU()\n","    (8): Linear(in_features=16, out_features=1, bias=True)\n","    (9): Sigmoid()\n","  )\n",")"]},"metadata":{},"execution_count":19}]},{"cell_type":"code","metadata":{"id":"MefZQj3C1QHZ","executionInfo":{"status":"ok","timestamp":1630547099319,"user_tz":180,"elapsed":368,"user":{"displayName":"Guilherme Pereira Albino da Silva","photoUrl":"","userId":"07971392613373651702"}}},"source":["criterion = torch.nn.BCE
…
8080/"},"id":"UG_9hCUmvkuh","executionInfo":{"status":"ok","timestamp":1630547137737,"user_tz":180,"elapsed":371,"user":{"displayName":"Guilherme Pereira Albino da Silva","photoUrl":"","userId":"07971392613373651702"}},"outputId":"6a982c8e-1a60-43b9-a459-ce4ea0afbce9"},"source":["max_size = 3000\n","batch_size = 64\n","n_epochs = 10\n","learningRate = 0.1\n","save_filename = 'BOW_FREQ'\n","\n","mlp_BOW_FREQ = NN_CREATOR(max_size)\n","mlp_BOW_FREQ.to(device)"],"execution_count":23,"outputs":[{"output_type":"execute_result","data":{"text/plain":["NN_CREATOR(\n","  (dense): Sequential(\n","    (0): Linear(in_features=3000, out_features=128, bias=True)\n","    (1): ReLU()\n","    (2): Linear(in_features=128, out_features=64, bias=True)\n","    (3): ReLU()\n","    (4): Linear(in_features=64, out_features=32, bias=True)\n","    (5): ReLU()\n","    (6): Linear(in_features=32, out_features=16, bias=True)\n","    (7): ReLU()\n","    (8): Linear(in_features=16, out_features=1, bias=True)\n","    (9): Sigmoid()\n","  )\n",")"]},"metadata":{},"execution_count":23}]},{"cell_type":"code","metadata":{"id":"ATbi2gsZvku0","executionInfo":{"status":"ok","timestamp":1630547140084,"user_tz":180,"elapsed":6,"user":{"displayName":"Guilherme Pereira Albino da Silva","photoUrl":"","userId":"07971392613373651702"}}},"source":["criterion = torch.nn.BCELo
…
