…
ino da Silva","photoUrl":"https://lh3.googleusercontent.com/a/default-user=s64","userId":"07971392613373651702"}},"outputId":"2c4c2f84-8887-4aa9-a52f-fc1fbb7b561f"},"source":["model = Model(embeddings, params['padding_idx'], n_heads=params['n_heads'], dim=params['dim'], max_length=params['max_length'])\n","model.selfAttentionLayer.requires_grad = False\n","model.to(device)\n","model.parameters"],"execution_count":87,"outputs":[{"output_type":"execute_result","data":{"text/plain":["<bound method Module.parameters of Model(\n","  (selfAttentionLayer): SelfAttentionLayer(\n","    (embedding_layer): Embedding(400002, 300, padding_idx=400001)\n","    (positional_embeddings): Linear(in_features=300, out_features=200, bias=False)\n","    (W_q): Linear(in_features=300, out_features=300, bias=False)\n","    (W_k): Linear(in_features=300, out_features=300, bias=False)\n","    (W_v): Linear(in_features=300, out_features=300, bias=False)\n","    (W_o): Linear(in_features=300, out_features=300, bias=False)\n","    (layer_norm1): LayerNorm((300,), eps=1e-06, elementwise_affine=True)\n","    (feed_forward): Sequential(\n","      (0): Linear(in_features=300, out_features=300, bias=True)\n","      (1): ReLU()\n","      (2): Linear(in_features=300, out_features=300, bias=True)\n","    )\n","    (layer_norm2): LayerNorm((300,), eps=1e-06, elementwise_affine=True)\n","  )\n","  (dense): Sequential(\n","    (0): Linear(in_features=300, out_features=300, bias=True)\n","    (1): ReLU()\n","    (2): Linear(in_features=300, out_features=128, bias=True)\n","    (3): ReLU()\n","    (4): Linear(in_features=128, out_features=64, bias=True)\n","    (5): ReLU()\n","    (6): Linear(in_features=64, out_features=32, bias=True)\n","    (7): ReLU()\n","    (8): Linear(in_features=32, out_features=2, bias=True)\n","  )\n",")>"]},"metadata":{},"execution_count":87}]},{"cell_type":"code","metadata":{"id":"qg2xfh7GzLrC","executionInfo":{"status":"ok","timestamp":1633549427093,"user_tz":180,"elapsed":4,"user":{"displayName":"Guilherme Pereira Albino da Silva","photoUrl":"https://lh3.googleusercontent.com/a/default-user=s64","userId":"07971392613373651702"}}},"source
…
